src/wb_sol/src/tools/results/model.pth (torch_old, 88668 bytes, 8 tensors)

conv1.weight f4 [10, 1, 5, 5]
00000000: e022 8f3e 1d28 af3e 7e3e ea3e 905f 953e
00000010: 61ea f43e 05f5 e33d 58e2 7e3e 687f 823e
00000020: 727a bd3e da4a 153e 1666 8d3b 746f 1ebe
00000030: dc09 5ebe ac47 85bd 0aec 523e afe9 e5bd
00000040: c552 b9be cd6e 57ba d843 a7be 1bb3 c33d
00000050: 4eb6 9ebe 481e aebe d4df afbe b0ef d7bd
00000060: f069 6dbd de0a 863e aac3 a1bd c9a6 85bd
00000070: 1e38 b13d 4211 de3d d6b2 603e c099 8ebd
00000080: b8e0 61be cda5 58be f320 943d bdb0 b33e
00000090: 82b1 35bb f1b9 39be 80c1 4bbd 175f 42be
000000a0: d658 b13e afa8 1dbe 1529 80be c65a 45be
000000b0: 6948 2ebd 6563 973e f290 823e a539 85be
000000c0: 0a4c d7bc ad30 50be 8405 213e 2b00 b53e
000000d0: 82a7 523e ff19 11be 9ffe 91be 5378 b33e
000000e0: 56db f83e 53f8 3dbd 5c36 25bd 7a98 e2be
000000f0: ffa5 923e 16c3 1a3f ad7e 863e 9cdc 9ebe
00000100: ec70 d3be 40ea c43e 0dc3 0f3f 2a9f 0c3f
00000110: 506a 803e 7256 5b3e ad57 663e e8a4 df3e
00000120: 0dd3 f33e ebad f43e f465 f63e 88b3 89bd
00000130: a5a5 72be dc2e b4bc 1cf3 4a3d aec0 123e
00000140: cf41 3bbe 6a20 fabc 4fed 5ebe 05b0 cbbc
00000150: 6678 db3c d868 a7be 7f12 fdbd 86f2 4c3e
00000160: 651e b43e 4b45 273e 4849 8bbd 97b0 86bb
00000170: 7f19 8c3e 15c2 083e 7968 35be b3bc d73b
00000180: d67b ae3e 7bfe 903e e019 953d 4244 14be
00000190: e4d0 5b3e 63a9 913e ebcd 293e b611 a13e
000001a0: 15dc 6c3e b0ab 343d 4005 293b 48ba 8cbc
000001b0: 58de b03e 7aec c83e 70ab a3be 025b 33bd
000001c0: b609 723e 7e2c f43e 7077 fb3e f5b0 78bd
000001d0: 08af e33b cb21 f33e 7a0f 223f 1b89 3f3e
000001e0: e716 f93d ebb2 c23e 8a29 343e cdb8 f03d
000001f0: e350 653e 80c8 ea3c 93cf 74be f035 cebe
00000200: 43a3 d2be 3a5f afbe f930 aebe 46f7 f1be
00000210: c412 9bbe d18f 55be 7f50 84bd 5cd2 bf3c
00000220: a32e 03bd edd0 883e 30d4 6e3e 5126 013e
00000230: 9648 c43e d15a 003f 33eb 823e 10e4 023f
00000240: cbd3 b23e 30b9 ae3e 9d62 9e3e 2545 2e3e
00000250: 8563 abbd 3654 15bd d35d 3c3e a44e d6bd
00000260: dfa8 ad3d 2f5b 84bd 27c2 b13c 2a8c 2cbc
00000270: 56df babd b304 36be 0bd7 c0bd 6113 7e3b
00000280: 5294 483d 1e6f 973d 9695 343e d2cf a13d
00000290: 842f 51be 2e37 09be 3dfb acbd 66c2 0cbe
000002a0: 2261 b83d fa57 e6bc 5e21 833e cdfc 813d
000002b0: 7b73 193e 7d13 a2bd 3159 553e 8e5d e4bd
000002c0: dcce 4b3e b1e5 65bc a481 53be 2564 f1bd
000002d0: 0032 28be 2896 783e 2377 ae3d 539d 923c
000002e0: 0ac6 a4bd 89d7 a5bd a44d 673e 837d d33e
000002f0: 9844 a23e 75e6 d93d 5223 81be 7c8e 2c3d
00000300: 3d07 ff3b 3f6a a5bc 3eec 7a3e 526a adbe
00000310: 22ab 6ebe ef2d 47be 75db 09bc 8f3f 0bbe
00000320: 1bd6 8dbe 3e2f bbbe 2d57 54be cf93 81be
00000330: e1a9 563d 6897 43bd 7e01 d0bd f5b3 adbd
00000340: 3a1d 87be 8da2 10be bf4e 6fbd 3d3a 54be
00000350: 8758 13be f48b cabd bb3e 8bbe ce3b fe3d
00000360: 12c2 ff39 0e00 843c 94a6 9e3d c243 403c
00000370: 52bd 463e 71fb 853e baf4 b33e 228f 1f3d
00000380: e95f 6e3e 2406 c43e acbb 133f 8501 103f
00000390: af11 e93e 418d b53e d340 d83e cb3d 913e
000003a0: e27b 9a3d 46d1 8dbd 19a8 593c e3f2 be3e
000003b0: 3232 27bd e84f 85be c1d6 83bd 4fd9 00bb
000003c0: a40e 193e 26fc 5bbe 6a1f 2cbe 089c 95be
000003d0: 0258 96be 5fb8 2bbd 6809 66be 7ceb 8dbe
000003e0: 82b6 eebd 48f9 dcbd
0.27956295 0.34210292 0.45750803 0.2917447 0.47835067 0.11130718 0.24891031 0.25487828
0.3700748 0.14579335 0.004315148 -0.15472203 -0.21683449 -0.06507811 0.20597854 -0.11226212
-0.3619596 -0.000821811 -0.32668948 0.09555646 -0.30998462 -0.34007478 -0.34350455 -0.10543764
-0.057962358 0.26180166 -0.07898648 -0.06525952 0.08653282 0.108431354 0.2194322 -0.06962919
-0.2205838 -0.21156998 0.07232847 0.35095778 -0.002772421 -0.18137337 -0.049745083 -0.18981586
0.3463809 -0.15396379 -0.25031343 -0.19272909 -0.042549524 0.2956802 0.2550121 -0.26020542
-0.026281375 -0.20331068 0.1572476 0.3535169 0.20571712 -0.14170073 -0.28514573 0.35052738
0.4860484 -0.0463794 -0.040335044 -0.44256955 0.2864227 0.6045393 0.2626852 -0.31027687
-0.4129709 0.3845997 0.56157 0.54930365 0.2508111 0.21419695 0.22494383 0.436805
0.47621956 0.4778894 0.4812466 -0.06723696 -0.23696001 -0.021995 0.049548253 0.14331314
-0.18286823 -0.030533034 -0.21770214 -0.024864206 0.026790809 -0.32697177 -0.123570435 0.2001439
0.3517944 0.16335027 -0.06801087 -0.0041104066 0.27363202 0.13355286 -0.17715634 0.006583774
0.34078854 0.28319153 0.07280326 -0.14479163 0.21466404 0.28449544 0.16582458 0.31458825
0.2313083 0.044109046 0.0025790483 -0.01717867 0.34544635 0.39242917 -0.31966734 -0.043787964
0.23636517 0.47690195 0.4911456 -0.060715634 0.0069483556 0.4748672 0.63304865 0.18704645
0.121625714 0.3802713 0.17593971 0.11753998 0.22394137 0.028660059 -0.23907308 -0.40275526
-0.41140184 -0.3425234 -0.34021738 -0.47258967 -0.30287755 -0.20855643 -0.06460666 0.023415737
-0.032026898 0.26721898 0.2332313 0.12612273 0.3833663 0.50138575 0.25570068 0.51129246
0.3492721 0.34125662 0.3093461 0.17018564 -0.08368591 -0.036457263 0.18395166 -0.10464218
0.08479475 -0.064627044 0.021699024 -0.010531465 -0.09124629 -0.1777523 -0.09416016 0.0038768875
0.048969574 0.07394241 0.17635188 0.07900967 -0.20428282 -0.13399956 -0.084463574 -0.13746032
0.090029016 -0.028118122 0.25611395 0.06347046 0.14985459 -0.07913873 0.20834805 -0.11150657
0.1990313 -0.0140318135 -0.20654923 -0.11786679 -0.16425323 0.2427603 0.08518817 0.017897284
-0.080455855 -0.08097751 0.22588211 0.41306695 0.31692958 0.10639659 -0.2522226 0.04212807
0.0077828453 -0.020192264 0.24504182 -0.33870178 -0.2330747 -0.19451116 -0.008414139 -0.13598464
-0.27702412 -0.3655948 -0.2073638 -0.25308082 0.052408103 -0.047751814 -0.101565346 -0.0848159
-0.26389486 -0.14124508 -0.058424708 -0.20725341 -0.14389239 -0.09889975 -0.27196297 0.124137506
0.00048781984 0.016113307 0.07746616 0.011734905 0.19408157 0.26168397 0.3514765 0.03895486
0.23278774 0.38285935 0.5770824 0.5625232 0.45521304 0.3545933 0.42236957 0.28367457
0.0754316 -0.06924681 0.0132847065 0.37294683 -0.040819354 -0.26037526 -0.064374454 -0.0019660776
0.14946991 -0.21482906 -0.16808859 -0.29220605 -0.2936402 -0.041923877 -0.22464526 -0.27718723
-0.11655904 -0.10789734

conv1.bias f4 [10]
00000000: 7cea 97bb e06e 363e c820 37bd fb86 20bd
00000010: 4bcf 96bd b161 00bc 8756 b2bd ec37 01bd
00000020: 1531 9e3e 2dce f43d
-0.004636107 0.17815733 -0.044708997 -0.039191227 -0.07363757 -0.007835791 -0.0870791 -0.031547472
0.30896822 0.119533874

conv2.weight f4 [20, 10, 5, 5]
00000000: be26 51bd fb9d db3b dc66 dfbc e010 b9bb
00000010: df7f 7bbb be7b 41bc 0acd 1bbe 668f b0bd
00000020: 5342 c1bc 2968 9b3c c05c 52bc b292 bcbd
00000030: 2474 c8bd d4ca c43c ac44 a3bd 97ac 3bbc
00000040: 70b0 53bd 5965 973c bb61 60bd 4bc0 0dbd
00000050: 7333 02be 9e4d 62bd dfca 263c 1931 df3c
00000060: daa1 69bd 3b21 a63d f6bb dc3b 1535 8bbb
00000070: 9cef 3aba a30a 8dbd a302 7cbc 78c9 28bd
00000080: 3da7 edbc 0584 ab3c cb87 fabc 1b1d 953d
00000090: c5b1 2cbd 6632 8d3d 1ef9 413d 9821 d3bc
000000a0: 4177 c3bc 4b24 4f3d 49b7 a73d 7020 9c3d
000000b0: db23 c4bc 5965 a03c 6976 243c 963c 253d
000000c0: ffc3 59bd 6bad 49bd 2449 a6bd d8f5 92be
000000d0: a7ef 3cbe 72a9 babd 587b ef3c ffd7 0fbe
000000e0: 5df2 23be 4336 9d3d 3013 be3d 994a ab3b
000000f0: 2184 91be dece 9abd d71a 933e 20b5 8d3d
00000100: a370 18be 94ac 26be 645b b33d 0429 8f3e
00000110: f456 dd3c 7bc0 dfbd 5533 283d 216f 8d3d
00000120: facb 173e c4c4 51bc 892e 9bbd 5526 c13b
00000130: e24d a83c ecd4 743b a250 fa3d c4b4 d93d
00000140: 256f b53c a716 e93d 5baf cf3d 2a7e cc3d
00000150: 019c 253d 8763 22bc 025b 673d bdd0 313d
00000160: f710 e4bc c2a6 123d 98fb 01bd 2555 553d
00000170: 3e40 ae3c ebf7 ff3b 9d2c 053d b643 e93b
00000180: 0e16 e4ba 854e 8bbc 94db e0bc 064e 4abd
00000190: d743 79be 4441 c6bd 6716 c73d 51b2 c83d
000001a0: 7f62 123e 3436 54be cbe4 a73d 4a68 133e
000001b0: d061 69bd 41de a3ba 2e2e 63bd 716d 393e
000001c0: 2a66 003d ce9e 33bd e9b1 d1bc 5765 3cbc
000001d0: 2731 fc3d 0bcc febd fb98 14bd 845d 50bd
000001e0: 6b57 043d f1bc a3bc d36e 8abc 0b70 4ebc
000001f0: 5e60 b0bd 77c8 80bd 7bc5 02be 2daa 93bd
00000200: 025c b03d 82c3 773d 3718 cdbd f193 e4bc
00000210: a631 1a3d 0e53 3f3d c3f2 c7bd 8034 07be
00000220: d014 14be 430b 50bd 07a2 4bbd 92b1 41bd
00000230: 8017 00bd 8536 f2bd 787d 38be 2fe7 343c
00000240: 451c 423c 527a 14bd 4a03 2fbe 6bf7 24be
00000250: c3d6 9d3a b33b 5a3d 1dcc 73bd 1a20 f0bc
00000260: 1826 bf3b 41fc 78bd 49d7 d23c 45fd 1f3d
00000270: a2a5 1f3d 8e2e b8bc a2c2 9abd c07c cebc
00000280: 3b6c a1bc 57f0 12bc 9b35 153d 77ed c7bb
00000290: 1a6d 7a3d bfe4 7e3d b964 85bd 24a2 8cbd
000002a0: 6a6a a8bc 9762 3ebd 1190 83bc 4619 5cbd
000002b0: 5fd6 38bc ae5c 0ebd b62a 2e3d f109 2dbd
000002c0: 2c9b c1bc b866 01bd e87c 813c d544 a93c
000002d0: d189 11bd 0aa3 3fbd 46ef 83bd 1143 3cbd
000002e0: 8e42 fc3c 88ac edbb 708e b0bd 03b4 04bd
000002f0: d3b3 733c 705b aebc 9819 8b3a fbd4 1b3c
00000300: 2ad6 d03c a882 b6bc 636e 213d d8dd 9e3a
00000310: cbb9 173d 6e3f f23d 7c9e 023d 022e 853d
00000320: d072 88bc 1eb6 603c 3799 af3c d6f0 04bd
00000330: f358 1ebd 85b2 63bd dd47 4b3d a8c2 f53c
00000340: df48 88bc aa56 30bc f735 50bd b236 cdbd
00000350: a902 8dbd a94e 293a 51d7 8dbc cfde 433b
00000360: 0209 43bb 4dc2 6abd 0c92 34bd 9979 153c
00000370: 3e73 ab3a 8185 68bc 160c ed3c e455 013c
00000380: 7fd2 8d3c eb28 9e3d 38b2 3cbc c2c7 7a38
00000390: f02b 20bb 5667 773d 7f78 883d f9be 30be
000003a0: 1dfc c1bd 6545 fb3d 8a17 b33d ca5b 40bd
000003b0: 165a 66bd 441d 143e b9f1 223e e7c2 2fbc
000003c0: 0616 cbbd d6ca 28be aa23 293d 743e 263c
000003d0: 7970 c6ba ed25 3fbd c9d3 65bc f54c 5d3d
000003e0: 4b76 fcbd b94b 0f3c 057e 52bd 2a03 8abd
000003f0: dd40 b7bd 4012 683d 5d7e 8d3d 5440 a5bc
-0.051062338 0.0067021823 -0.027270727 -0.0056477636 -0.0038375778 -0.011809288 -0.15214935 -0.08621101
-0.023591196 0.018970566 -0.012839496 -0.092076674 -0.09787777 0.024022497 -0.079720825 -0.011454723
-0.051681936 0.018480944 -0.054780703 -0.034607213 -0.12714939 -0.055249803 0.010180204 0.027245091
-0.05703912 0.08111807 0.006736274 -0.004248271 -0.00071310415 -0.068867944 -0.015381488 -0.04120776
-0.02901041 0.020936975 -0.03058233 0.07280942 -0.04216172 0.06894378 0.047356717 -0.025772855
-0.023860576 0.05057172 0.08189256 0.076233745 -0.023942878 0.019579576 0.010037997 0.040340982
-0.053165432 -0.04923765 -0.08119419 -0.2870319 -0.18450795 -0.091143504 0.02923362 -0.1404724
-0.16010423 0.07676365 0.092810035 0.0052273986 -0.2842112 -0.07558988 0.28731415 0.069193125
-0.14886717 -0.16276771 0.08757666 0.2796098 0.027019002 -0.109253846 0.04106458 0.06905962
0.14823905 -0.01280326 -0.07577235 0.005894462 0.02054495 0.0037358357 0.12222411 0.106301814
0.022147724 0.11381274 0.10140868 0.099850014 0.04043198 -0.0099114245 0.056483276 0.04341196
-0.02784012 0.035803564 -0.03173408 0.052083153 0.021270867 0.0078115365 0.03251325 0.0071186675
-0.0017401592 -0.017005214 -0.027448453 -0.049390815 -0.24342285 -0.09680417 0.0972107 0.09799636
0.14295386 -0.20723802 0.08197936 0.14395252 -0.056978047 -0.001250215 -0.055463962 0.18108155
0.03134743 -0.04385262 -0.02559753 -0.011498771 0.123140626 -0.12441262 -0.036278706 -0.050870433
0.03230993 -0.019987555 -0.016898548 -0.012599955 -0.086121306 -0.06288236 -0.12770645 -0.07210193
0.08611299 0.060489185 -0.10014384 -0.027902575 0.037645005 0.046710066 -0.097631 -0.13203621
-0.14461064 -0.05079199 -0.04971507 -0.047288485 -0.03127241 -0.11826805 -0.18016613 0.011041447
0.01184756 -0.036249466 -0.17091098 -0.16110007 0.0012042153 0.05327959 -0.05952083 -0.029312182
0.0058333986 -0.060787443 0.025737422 0.039059896 0.03897632 -0.022483137 -0.075566545 -0.02520597
-0.019704929 -0.008968434 0.036428075 -0.006101306 0.061139204 0.062229868 -0.06513352 -0.06866863
-0.020558555 -0.04648074 -0.016059907 -0.05373504 -0.011281579 -0.034756355 0.0425212 -0.04224581
-0.023633562 -0.0315921 0.01580663 0.020662704 -0.035531823 -0.046786346 -0.06442122 -0.045962397
0.030793454 -0.0072532333 -0.08620918 -0.032398235 0.014874416 -0.021283835 0.0010612486 0.009511228
0.025492746 -0.022279099 0.039411914 0.0012120558 0.03704242 0.118285045 0.031889424 0.06502916
-0.01665631 0.013715295 0.021435363 -0.03245624 -0.038659047 -0.05559017 0.04962908 0.030000046
-0.01663631 -0.01076285 -0.050832715 -0.10020198 -0.06885273 0.00064585597 -0.017314585 0.0029887443
-0.0029760008 -0.057314206 -0.044084594 0.009123229 0.001308061 -0.014191986 0.028936427 0.007894013
0.017312286 0.07722648 -0.0115171 5.9790684e-05 -0.0024440251 0.060401283 0.06663608 -0.1726035
-0.09471915 0.12269095 0.08744724 -0.046962537 -0.056238256 0.14464289 0.15912522 -0.010727621
-0.0991631 -0.16483626 0.041293778 0.010146726 -0.0015139721 -0.04666703 -0.014027544 0.05402847
-0.1232725 0.008746081 -0.051389713 -0.06738885 -0.089479186 0.05665803 0.069088675 -0.020172276

conv2.bias f4 [20]
00000000: ba02 ba3b dae8 b23d 269e 10bd 9ac5 91bd
00000010: ab0e d13c a4b8 8b3c 31dd f93a 7c13 c03b
00000020: db8c c6bc 640f c0bc 1e86 9f3d 4ee7 cb3c
00000030: 08f4 b9bd 52b0 b13d a258 c4bd d2be 28bd
00000040: 7f5e 1d3d 59c7 d8bc 173e c7bc d059 50bb
0.0056765946 0.08735819 -0.035307072 -0.07117768 0.02551969 0.017055817 0.0019063113 0.0058616977
-0.024237087 -0.023444839 0.07789253 0.024890568 -0.090797484 0.086762086 -0.09587218 -0.041197605
0.038420197 -0.026462244 -0.024321599 -0.0031791814

fc1.weight f4 [50, 320]
00000000: e07b a53b 51a1 973c c436 b73d 9986 d93d
00000010: 6a99 243b ffb6 33bb 881d 303a 7d7f 20bd
00000020: 1678 f4bc 291d bcbc 75b8 f63d 2d9a 80bc
00000030: fef0 4bbd db15 c5bd b4d6 343c e5eb 56bd
00000040: bd8a bf3a 3b4d 02bc 7add ea3d 7911 a53d
00000050: eae4 9abd a46d d5bc 8375 f13b b4b6 daba
00000060: 1f23 94bc 5928 84bd b40b bcbc 68ca 57bd
00000070: 9d97 5bbd 014f 35bd 820a 6bbd a10b 4e3d
00000080: 2801 1bbd 47fa 6dbd 2358 26bd 395b c6bb
00000090: 55e6 52bd 8457 5bbc 04bb 0a3d c97a c13d
000000a0: 6e25 00bd 12e0 0b3d 5446 dc3c 010c 3bbd
000000b0: 4d94 05bd 4a80 d2bd 0e7b 583d 3b17 efbd
000000c0: 2b94 173d 6793 78bc 9e56 843a ade2 adbc
000000d0: 82ce 5f3d ce94 1f3b 024b 083d 02ad 103d
000000e0: 9575 263d 8a83 1dbd 6614 b5bc ecf2 f5bc
000000f0: 8517 053d cc05 32bb 6e9b 853c 37a1 48bb
00000100: b5d3 0bbd dc1a a33c 335f 8fbd e75e 993c
00000110: 6617 9fbd 510c eb3d 2113 ddbc a195 9e3d
00000120: 70aa e2bd 28c8 4c3d 0b36 b0bb cf40 903b
00000130: 7b76 ddbd adf6 98bc d337 80bd c615 2dbd
00000140: 710f 4fbd 73d3 733b 48d4 7d3d 453a 593d
00000150: 4244 93bb 6bbc 8d3c 9381 91bb 2ffb 81bd
00000160: aa13 253b c406 b83d d222 5cbd 5128 b1bc
00000170: d450 aa3b a799 483d 7f5b 673d 2522 0abd
00000180: f38b 663d 37c7 653d 7a43 e53d ce2a 733c
00000190: 905f c83c 916d 8f3c c3fd 82bb a241 0ebe
000001a0: 57bc 23bc 0aa1 20bd cab0 ab3c c8fb 47bd
000001b0: 5fdc 9dbd 9b9f 1dbd f4ce 36bd 7e97 8938
000001c0: 774a f6bd 938c 12bd ec46 953c f4a5 e8bd
000001d0: 057a e5bc efb8 c9bc 7fcd 8e3d dcdc 543d
000001e0: b9d9 cfbc ad1e c2bc f01e 8abb d4f8 0cbc
000001f0: 18d2 a9bd c553 893d da6d 813c 1838 ddbc
00000200: f3e9 97bc bafd a63d 76e0 953d ad98 313d
00000210: d4d3 bfbc 7660 543c 0365 f3bc 5007 4bbd
00000220: f50e 9139 0b03 2a3d 6b6e 263d 8558 babc
00000230: 9f95 d63c c897 c43c 201a b73c 695a 9bbb
00000240: 1403 35bd 0e3a 2a3c c74a 163c ab18 09bd
00000250: 73c3 da3c b88d ac3c bf49 c9bc 88ea 2a3d
00000260: a562 23bd a947 6d3d 7f33 dabc 92d4 823d
00000270: 3958 22bd eda6 c53d c887 91bc ea74 1cbc
00000280: 8ef7 5ebd ce1f 4f3d dcdf f1bd 5a64 5fbd
00000290: 1306 8fbc a233 4ebd 7d83 14be 87a8 043c
000002a0: 649a 99bd ff3a 033d a829 053d 2ed7 8a3c
000002b0: e9dc d43c 050b 8d3d b0f1 5cbc 0614 25bd
000002c0: e32c f2bd 30af 46bd 4c1c f4bd 71cf 213c
000002d0: 0493 fcbd f113 243c b05b 563c 046d 99bc
000002e0: 9a82 20bd d066 4ebd 90eb e5bc ec34 74bc
000002f0: 539e 40bd 0dee 0f3d e83d f83d a530 3dbd
00000300: 4b67 7cbd 96e1 1abd a2e2 89bc ec4c e03c
00000310: abaa 333d ee70 cc3c 7471 4c3d 1869 6fbd
00000320: ab59 ec3c c4df ecbb 52fd 313d 9f6c 8fbc
00000330: b200 b4bd 774e df3c f2aa 56bc a94a 1fbd
00000340: 79ee 283d 0866 843d 854f 0b3e e5dd bbbc
00000350: 413c bebb ad87 19bc 1fba 003d 7a21 36bd
00000360: 4c8d 663d 0c98 35bd bd53 c1bc 3039 2ebd
00000370: d492 a53c 5f22 393d 22a5 fabc 554f 1abd
00000380: bf18 4bbc e969 97bd 24b7 193c 8cd6 78ba
00000390: 1282 87bb 14f0 77bd 566b a23c 385c 803d
000003a0: 033a a7bd be84 17bd 755a d13c 1316 8bbc
000003b0: bd2f adbc 6fbc ad3b 42b4 eb3b 4e03 51bc
000003c0: 8115 02bd 6831 27bd deb5 68bd c8ae b139
000003d0: 162d d6bd 02d3 bdbd a57f 8cbd 7416 3c3d
000003e0: 2481 bebd b3d3 50bd 64ee b23c 136e 9ebc
000003f0: cca1 adbc 525e dd3c de79 8d3d c758 803d
0.0050501674 0.018509539 0.089459926 0.106213756 0.0025115856 -0.0027422307 0.00067182677 -0.039184082
-0.029842418 -0.022963123 0.12046901 -0.015698517 -0.049790375 -0.09623309 0.011037517 -0.05247106
0.0014613491 -0.0079529835 0.114680246 0.08059973 -0.07563193 -0.026053257 0.007368745 -0.001668653
-0.018083153 -0.06453008 -0.0229548 -0.052683264 -0.053611387 -0.044264797 -0.057383068 0.05030406
-0.0378429 -0.05810001 -0.040611397 -0.006053355 -0.051489193 -0.013387565 0.03386976 0.094472475
-0.031285696 0.034149237 0.026889004 -0.045665745 -0.032612134 -0.102783754 0.05285173 -0.11674353
0.03700654 -0.015171862 0.0010096615 -0.021226251 0.0546403 0.002435017 0.033274658 0.035321243
0.04063948 -0.038455524 -0.022104453 -0.03002306 0.032493133 -0.00271641 0.016309466 -0.003061367
-0.034137446 0.019910268 -0.0700058 0.01872201 -0.07768135 0.114769585 -0.02698666 0.07743383
-0.110676646 0.04999557 -0.005377536 0.004402257 -0.10813614 -0.018672312 -0.062606476 -0.042257093
-0.050551835 0.003720489 0.061970025 0.053034086 -0.004494221 0.017301759 -0.0044404953 -0.063467376
0.0025188723 0.089856654 -0.053744145 -0.02162567 0.0051976237 0.04897466 0.05648374 -0.03372397
0.05628581 0.05609819 0.11194511 0.014841748 0.02445963 0.0175083 -0.003997536 -0.13892224
-0.009993634 -0.03921608 0.020958323 -0.0488241 -0.07708048 -0.03848229 -0.04463096 6.560887e-05
-0.12025922 -0.035778593 0.018222295 -0.11359778 -0.028012285 -0.024624316 0.06972789 0.05196844
-0.025372373 -0.023696268 -0.004215114 -0.008604247 -0.08292025 0.06705431 0.015799452 -0.027004287
-0.018544173 0.08153863 0.07318203 0.043358494 -0.023416437 0.012962451 -0.029711252 -0.04956752
0.000276677 0.04150681 0.040632647 -0.022747288 0.026194392 0.023998156 0.022351325 -0.0047410023
-0.04419239 0.010389818 0.009173102 -0.03347079 0.026704526 0.02106367 -0.024571298 0.041727573
-0.039888997 0.05792967 -0.026635883 0.06388201 -0.039634917 0.09650979 -0.01776494 -0.009549359
-0.054435305 0.05056744 -0.11810276 -0.054539062 -0.017458951 -0.05034221 -0.14503284 0.008096821
-0.07500151 0.032038685 0.03251043 0.016948309 0.025984244 0.068868674 -0.013485357 -0.0403023
-0.11824968 -0.048506916 -0.1191946 0.009876118 -0.123327285 0.01001452 0.013083383 -0.01872874
-0.03918705 -0.05039102 -0.028066427 -0.014905196 -0.04702599 0.035139132 0.12121183 -0.04618897
-0.061621945 -0.03781279 -0.0168317 0.02738043 0.043863934 0.024956193 0.049912885 -0.058449835
0.02885135 -0.0072288234 0.043454476 -0.01750785 -0.08789195 0.027259095 -0.01310228 -0.03888956
0.04124305 0.064647734 0.13604553 -0.022932956 -0.0058055227 -0.0093707265 0.0314275 -0.04446552
0.056287095 -0.044334456 -0.0235995 -0.042535007 0.020211615 0.045198794 -0.03059632 -0.037673313
-0.012396037 -0.07393248 0.009382043 -0.0009492419 -0.0041353786 -0.06053169 0.019826572 0.06267589
-0.08165362 -0.036991827 0.025555829 -0.0169783 -0.021140927 0.005302004 0.0071931193 -0.012757136
-0.03175879 -0.0408186 -0.056814067 0.00033890293 -0.10457818 -0.09268762 -0.06860284 0.04591985
-0.09301975 -0.050983142 0.02184219 -0.019339597 -0.021195315 0.027022514 0.0690801 0.06266933

fc1.bias f4 [50]
00000000: 2ae4 013d a3a0 343b 9fa3 40bd 01c1 683d
00000010: 2340 d23d c45f d33c 237e 003d c6d8 ef3c
00000020: a316 a03d 36a6 963d 3dfb b33d c180 7f3d
00000030: c7bd a83d 179c 833c dfb7 8abc ca1a 98bb
00000040: 1fbc fc3c 01a1 a03d 460f 0b3d 4d6a 1f3d
00000050: badc 103d 7736 b53d 4120 1f3d 0fac aa3d
00000060: 9425 a03b 993a ee3c 8e46 5f3d f643 0f3c
00000070: 00c5 45bc eeec 5cbc 7cf5 5bb9 381b e4ba
00000080: afc7 5a3d c666 713d 9523 7e3d 4a8c feba
00000090: 8f1a a83d 656f ea3d 402b 5e3d 6aef eb3c
000000a0: 5b38 323d 249c 0c3d fa1e 233c 57b0 0d3c
000000b0: ebd1 f63d 50d9 da3c da68 393d ab58 373d
000000c0: 1c91 843d 986d 963d
0.031711735 0.0027561567 -0.04703104 0.056824688 0.10266139 0.0258025 0.031370293 0.02927817
0.078168176 0.07355921 0.08788154 0.06237865 0.08239322 0.01606564 -0.01693338 -0.0046418654
0.030851422 0.07843209 0.033950113 0.038919736 0.03536675 0.08848279 0.03884912 0.08333599
0.004887292 0.029080676 0.054510646 0.0087442305 -0.012070894 -0.013484223 -0.00020976918 -0.0017403131
0.05341309 0.058935903 0.062045652 -0.0019420472 0.08208191 0.11447028 0.054240465 0.028800685
0.043510776 0.034328595 0.009956116 0.008648 0.120517574 0.02671495 0.04526601 0.044762295
0.0647299 0.07345122

fc2.weight f4 [10, 50]
00000000: 825f 66bd 7278 163e 8d7c c83e 81b2 413e
00000010: c7a5 0c3e c8ff 28be 9917 43be 10be 9ebb
00000020: cc14 d1be dff9 723e f0dc 40be d558 e5bd
00000030: 829c 3abe 071b 9abe cd0f 8fbe 43ba 6b3e
00000040: fd2c 1cbe 9b74 423e ddea fabd d9d7 2a3e
00000050: dd3d 0a3e b34d 83be 6bcb 79be e814 aaba
00000060: e437 8e3e 84a3 45bd 4c6a eabc c8c2 62be
00000070: 64d8 143e 7ebe 5b3e 8092 14be f6d9 5bbe
00000080: 3fba 403d b04d 20bc cef7 5c3e 0a75 0ebe
00000090: 90f3 00bd 2a80 9cbd 2d85 98be c62b d43d
000000a0: de11 2c3e 7d89 5abe 2dc0 893e b56d d2bd
000000b0: 68e2 8ebe 3b52 b13e 1503 2cbe 436c 8bbe
000000c0: 3bdc 323e c21f 2f3e d691 ad3e b223 a9be
000000d0: e567 21bd aa38 cdbb cd92 b7be 9791 45be
000000e0: 76b4 57be bfb9 2f3e 3284 1ebe bc8b 1cbe
000000f0: f61a 853e b4fa 873e 88f3 6d3e 88dc 1b3e
00000100: ae6e 39be 9e20 733d 032c 3d3e 0f9e 82be
00000110: e3b8 3dbe 8f6c b6bd 4382 99bc 70b2 633e
00000120: cccb 0e3e 4687 bf3e 3fe3 71bd 4eea 563e
00000130: dcc1 cdbd c935 a93e 1bab f8bd 1413 5fbe
00000140: 6149 863e e4dd 02be 69ba ccbd 2812 01be
00000150: 28fc 12be 53f9 27be 9e69 513e bda8 183f
00000160: e57f 763e 155a 3fbd 494a 73be 6c2e 0a3e
00000170: 125d ecbd b3da 2a3e 06f0 8b3e d0a8 19be
00000180: 601f 913c 40fd 28be dc05 92bc 4d44 d5bc
00000190: 5596 713b 4f11 7dbd f4c5 9dbd 8812 953d
000001a0: 1bf0 40be a428 7f3e 723a 1d3e fbf1 833e
000001b0: 2eb9 82be 3e8e 0d3e 998e e3ba 6472 6cbe
000001c0: 0c71 913e ece9 74be 51d6 babd 83f9 453e
000001d0: 6a55 6f3e ffa9 503e 8ee0 2fbe 488c 033e
000001e0: 5a6b 813c a122 7fbe 0fb2 94be 5665 51be
000001f0: 9b3c 8a3d f5ef 853e 432f 073e a245 a53e
00000200: b1e5 4e3e 1658 383e f43a 0cbe 3d06 19bd
00000210: 0bcc 17be d285 3b3e dd12 313d 9c75 efbd
00000220: f127 9d3d 8d67 adbb 2d84 7bbe c646 50be
00000230: cd00 94be a9f8 4f3e 8652 763e 5e8b b6bd
00000240: 109c 983e c57a 24be 85ae 173e 7c1e 35bd
00000250: 3cae 21bd 5fa3 113e 6865 babd ef88 d93d
00000260: 7409 35bc 5561 5f3e 7eaa 37be 5ef5 a73d
00000270: ed51 62bd dd54 743e 906f 1a3e 17e3 e9bc
00000280: 50f8 99be 616a 61be 8941 eb39 6fdd 633e
00000290: d257 913e 5041 4abe b9bf 413e 6b48 f5bd
000002a0: 8970 dfbd 7457 2b3e c42b 023d e97c 33be
000002b0: d777 6cbe dbed 84be 9702 3fbe 9d24 743e
000002c0: d096 43be c777 a1bd a1b7 2e3e 51bf 0fbe
000002d0: a439 14be 255c 893e 11c0 16be 20f9 3ebe
000002e0: 3f35 0ebe ed7b 16be 4461 883e 5929 f8bd
000002f0: 062e 683e 629c d6bd f9b6 15be c8c5 d73d
00000300: cdf6 13be 3423 6a3e e7c2 04be d921 bdbd
00000310: 0d7f 123e 32ab a0bc 56ba 8cbe 282c 533e
00000320: ff2e 33bc 3745 9fbe 7dde e23d 27a7 96be
00000330: 4193 b4be 3921 813e d309 ab3e edae b6bd
00000340: aa62 233e b771 6dbe 2e89 493e 1dae 76bd
00000350: 0b9a 663b a7ac 213e d44a 843e d9f1 593d
00000360: 67ea 4abe 9854 8a3e 24ed 763e 5360 8bbe
00000370: 148a 21bd 7e72 233e 0f15 203e 1252 0cbe
00000380: 0447 02be ae68 85be 67af 2ebe c186 323b
00000390: 20a7 1abe 2501 5f3e 4873 943e 83e0 d7bd
000003a0: a48c 3e3e dec2 d53e ef7e 82be faea 253e
000003b0: 8bc2 9dbd ce51 87bd 1176 0f3e 4692 42be
000003c0: 8010 28be 159a 993d bd65 38bc f36e e83c
000003d0: 6462 86bd faaf f7bd 1b20 033e 3765 8a3e
000003e0: 7870 283e 506b a6be f33a c7bd 21e3 153e
000003f0: 6c57 26be e1bb 573e 147c c63d 2bc0 6cbe
-0.056243427 0.14694384 0.39157525 0.1891575 0.13735114 -0.16503823 -0.1905197 -0.0048444346
-0.4083618 0.23728131 -0.18834281 -0.11198584 -0.18223765 -0.30098745 -0.27941743 0.23020272
-0.15251537 0.18989794 -0.12251828 0.16683902 0.13500161 -0.25645217 -0.24394004 -0.0012976201
0.27777016 -0.048251644 -0.02861514 -0.22144616 0.14535671 0.21459386 -0.1450901 -0.21469864
0.047052618 -0.009784147 0.21578905 -0.13911834 -0.03148228 -0.07641633 -0.29789105 0.103599116
0.16803691 -0.2134151 0.2690443 -0.10274831 -0.2790711 0.3463305 -0.1679805 -0.27231035
0.17466824 0.17101958 0.33900326 -0.33035046 -0.039405722 -0.0062628584 -0.35854188 -0.1929382
-0.21064934 0.171607 -0.15480116 -0.1528768 0.25997132 0.2655846 0.23237431 0.15220845
-0.18108627 0.059357278 0.1847382 -0.25511214 -0.1852756 -0.08907425 -0.018738871 0.22236037
0.1394493 0.37407893 -0.05905461 0.20987818 -0.10046741 0.33048847 -0.12142011 -0.21784621
0.2622786 -0.12779957 -0.099964924 -0.12604582 -0.14354002 -0.16403703 0.20450446 0.59632474
0.24072225 -0.04671677 -0.23758806 0.13494271 -0.11541189 0.1668499 0.2733156 -0.15005803
0.017715156 -0.16502857 -0.01782506 -0.026033545 0.0036863287 -0.061784085 -0.07703772 0.07278925
-0.18841593 0.24917847 0.15354326 0.25770554 -0.25531906 0.13823792 -0.0017361223 -0.23090512
0.2840656 -0.23917359 -0.09122909 0.19333462 0.23372427 0.20377348 -0.17175505 0.12846482
0.01579826 -0.24915554 -0.29042098 -0.20448813 0.06749841 0.26159635 0.13201623 0.32279688
0.20204808 0.18002352 -0.13694364 -0.037359465 -0.1482393 0.18312767 0.04323088 -0.11692354
0.07673634 -0.005291885 -0.2456214 -0.20339498 -0.2890686 0.203097 0.24054918 -0.08913301
0.29806566 -0.16062458 0.14812668 -0.044218525 -0.039472803 0.14222477 -0.09101373 0.10621821
-0.011049617 0.21814473 -0.17936131 0.08201097 -0.05525391 0.23860498 0.1508162 -0.028550668
-0.3007226 -0.22013237 0.0004487152 0.22252439 0.28387314 -0.19751477 0.18920793 -0.11976703
-0.10910136 0.1673258 0.03178002 -0.17528118 -0.2309259 -0.2596272 -0.18653332 0.23842092
-0.19100499 -0.07884174 0.17062236 -0.14037825 -0.14475113 0.26828113 -0.14721705 -0.18649721
-0.138875 -0.14695711 0.26636708 -0.121172614 0.22673807 -0.104790464 -0.1462058 0.10535771
-0.14449616 0.22864991 -0.12964974 -0.092349716 0.14306279 -0.019612882 -0.27485913 0.20622313
-0.010936498 -0.31107494 0.110775925 -0.29424402 -0.35268596 0.2522066 0.33405933 -0.08920083
0.15955606 -0.2318791 0.19681236 -0.06022464 0.0035187032 0.15788518 0.2583834 0.05320916
-0.1981598 0.27017665 0.241139 -0.27221927 -0.039438322 0.15961644 0.15633033 -0.13703182
-0.12722403 -0.26056427 -0.17059098 0.0027240964 -0.15102816 0.2177778 0.28994203 -0.10540869
0.18608338 0.41750234 -0.25487468 0.16202918 -0.07703122 -0.066074 0.14009883 -0.19001111
-0.16412544 0.07500092 -0.011254725 0.028373217 -0.06561735 -0.12094112 0.12805216 0.27030346
0.16449153 -0.32503748 -0.097280405 0.14637424 -0.16244286 0.21067764 0.09691635 -0.23120181

fc2.bias f4 [10]
00000000: eb34 7c3d 9f75 223e 72da 29be 56e6 343e
00000010: 7458 163c e65a 8b3d 01ea 32be ecef 2e3d
00000020: e284 c53d e581 0a3d
0.061573904 0.15865181 -0.16587237 0.17665991 0.009176362 0.06804447 -0.17472078 0.042709276
0.09644486 0.033815283
